models/temp.tflite (tflite, 2096 bytes, 1 tensors)

sequential_2/conv2d_22/Conv2D1 i1 [10, 3, 3, 1]
00000000: 077f 6227 5b78 3945 466c f4ea f368 7e81
00000010: a5e8 7346 2f53 6ed3 086e 7fca 7a81 566b
00000020: 93f1 0bcf fea1 6012 2d5b 7f14 7b6f ea7f
00000030: e3a1 53e8 aceb f8aa 1ab4 c890 81cf 5c94
00000040: 4397 e046 2150 bd7f 56bc 2d51 ac9b 068c
00000050: 7f81 6735 f10b 3c2c f1f8
7 127 98 39 91 120 57 69
70 108 -12 -22 -13 104 126 -127
-91 -24 115 70 47 83 110 -45
8 110 127 -54 122 -127 86 107
-109 -15 11 -49 -2 -95 96 18
45 91 127 20 123 111 -22 127
-29 -95 83 -24 -84 -21 -8 -86
26 -76 -56 -112 -127 -49 92 -108
67 -105 -32 70 33 80 -67 127
86 -68 45 81 -84 -101 6 -116
127 -127 103 53 -15 11 60 44
-15 -8
